onnxmodels/Shallow.onnx (onnx, 415563 bytes, 8 tensors)

encoder.conv1.weight f4 [40, 1, 1, 25]
000000 73 9a d8 bc a7 34 fa 3c 10 77 df bd ca f4 83 3d
       -0.026440835 0.030542685 -0.10911381 0.06443174
000010 03 4f 91 3d 40 da 26 be 00 5a 1c 3b cd 0c 2d bd
       0.070951484 -0.16294193 0.0023857355 -0.042248536
000020 50 3b 03 3e ad 91 81 bd 87 5d 25 3d 73 37 c1 3d
       0.12815595 -0.063266136 0.040372398 0.09434404
000030 4d f0 70 bc c7 13 0c 3d 80 2b 24 3d 30 c5 e2 3d
       -0.01470573 0.03419855 0.040080547 0.11072767
000040 2d c0 ad 3d 67 59 5d 3c c5 c6 03 3e ea 5f 44 be
       0.0848392 0.013510085 0.12868793 -0.19177213
000050 3a bc 39 3e 50 ad b9 3d cd 3a 38 3d 75 a2 07 3e
       0.18138209 0.0906626 0.04497795 0.13245566
000060 e7 bc f5 bc 1a 57 9e bd e7 e5 59 3c 00 35 9a bc
       -0.029997302 -0.07731457 0.013299442 -0.0188241
000070 3a 30 87 3d a7 bc cf 3c 80 c8 f4 bd da 4d 13 3d
       0.06600995 0.025358511 -0.11952305 0.035962917
000080 63 bb e7 3d eb 9f 1c be cd d8 0e 3b 70 5a 86 bd
       0.11315038 -0.15295379 0.0021796704 -0.06560218
000090 2d 4a 81 bd 4d 12 d3 3c 3a a0 19 3e cd 5d a9 bc
       -0.06312976 0.025765562 0.15002528 -0.02067461
0000a0 75 92 1b 3e e0 80 f4 3d ef b5 0a 3e 2d f3 55 bd
       0.15192588 0.119386435 0.13545965 -0.052233864
0000b0 60 79 11 be 95 45 47 3e bf aa 3f be f3 81 4c bd
       -0.14206457 0.19460137 -0.18717478 -0.049928617
0000c0 c0 68 43 be ef 6d 23 be 1a 6e 09 be 9d 9b ea bd
       -0.19082928 -0.15959905 -0.13420907 -0.11455462
0000d0 d3 d7 21 3d b0 be c9 bd e0 c5 2e 3d ed 71 01 be
       0.039512467 -0.09850824 0.042669177 -0.12641115
0000e0 5a 07 db 3d f3 2d 8d bc 9a 99 f5 37 f3 da 17 be
       0.106947616 -0.017233824 2.9277802e-05 -0.14829616
0000f0 6b 5b 21 3e 58 6b 08 be a7 46 18 3e ed 8a 73 3d
       0.1575753 -0.13322198 0.14870702 0.05945866
000100 a7 7c b2 3c 00 d6 40 bb b0 29 83 bd e3 c9 06 be
       0.021787954 -0.002942443 -0.06404436 -0.13162951
000110 00 02 bf bd 58 ea 0a be ba ab b7 bd 47 5a dd 3d
       -0.09326553 -0.13565958 -0.08968301 0.10808235
000120 0d 61 2d bd b3 64 41 bd a7 f8 bc 3c f3 2f e3 3d
       -0.042328883 -0.047215175 0.023067785 0.1109313
000130 75 0a 27 be 90 55 42 be 73 da bd 3c b7 7a 44 3e
       -0.16312583 -0.18977952 0.023175454 0.19187437
000140 05 ae 19 3e b3 7c f4 3c b3 00 39 3d c7 b8 3c 3e
       0.1500779 0.029844617 0.045166682 0.18429862
000150 07 56 74 3d c2 2c 22 3e 73 4c f8 bc 03 08 07 3e
       0.059652355 0.15837386 -0.030309891 0.1318665
000160 67 fe 26 be e5 7a 40 3e aa cb a8 3d d7 cb 89 3d
       -0.16307984 0.1879688 0.08241971 0.067283325
000170 cd 82 34 be 13 50 c1 bd c3 b4 08 3e 7a f0 6d 3d
       -0.17628022 -0.09439101 0.13350205 0.058090664
000180 03 0b 05 3e 73 d2 ca 3c 5f 56 1d 3e cd 1d 0b 3d
       0.12992482 0.024758553 0.15364979 0.033963967
000190 e3 f5 8c 3d 8d fd 69 3d cd 0c b7 bd 87 f3 1f 3e
       0.06882837 0.05712657 -0.089379884 0.15620242
0001a0 72 b0 37 be 02 c3 04 3e 6a 9e cb 3d fd 78 be bd
       -0.17938402 0.12965015 0.099423245 -0.093004204
0001b0 33 d1 4b 3c 1a a5 78 bc 27 60 42 3e f3 30 30 bd
       0.012440014 -0.015176082 0.18981992 -0.04301543
0001c0 e3 39 aa 3d 3d 03 05 be 33 12 99 3d 00 77 e5 3d
       0.08311822 -0.12989517 0.07474174 0.11204338
0001d0 c5 70 2e be 57 41 ae 3d 5a 77 c6 3c 9a 56 99 bb
       -0.17035206 0.08508556 0.024226833 -0.004679513
0001e0 fa 8a 63 bd e7 6f 82 bd 8d 08 40 be c2 99 04 be
       -0.05555246 -0.06369 -0.18753262 -0.12949279
0001f0 97 ed 2c 3e e7 16 cb bc ad 04 91 bd 07 6f 94 bd
       0.16887508 -0.024791194 -0.0708097 -0.07247739
000200 f8 35 16 be bd e4 06 be 18 c4 26 be 37 30 bd bd
       -0.14669025 -0.13173194 -0.16285741 -0.09237712
000210 da 45 8c bc 4d df 15 bc 7a 4b e3 bd 95 1c 40 be
       -0.017123152 -0.009147477 -0.110983804 -0.18760903
000220 73 ab 0d be 05 0f 18 be c5 af 3d 3e f0 59 32 3e
       -0.13834934 -0.1484948 0.18524082 0.17417121
000230 cd 5e d1 bd 73 17 24 3e 8a 39 c9 bd 9d 8f 9a bd
       -0.1022316 0.1602457 -0.09825428 -0.07546923
000240 d0 24 8f 3d 7a 66 80 bd e7 f6 32 3d 1a 58 f8 3d
       0.06989443 -0.06269546 0.043692496 0.12126179
000250 37 f7 b5 bd 57 7b a7 bd af 2d 0a 3e b5 ae 30 be
       -0.08885043 -0.08177822 0.1349399 -0.17254145
000260 9a 58 c0 bd b7 40 15 be ea f6 39 3e 7a b7 6f bd
       -0.093918994 -0.14575468 0.18160596 -0.058524586
000270 8b 7c 02 3e 53 65 70 bd 8d 03 a8 3d f7 26 34 be
       0.12742822 -0.05869038 0.08203802 -0.17592989
000280 1a 88 a0 bc 33 10 7c 3c 92 47 2a 3e c7 23 4c 3d
       -0.019596148 0.015384722 0.16628864 0.049838807
000290 e3 8c 19 be d0 39 09 3e 2d a6 b4 bd cd 43 88 bc
       -0.1499515 0.1340096 -0.08820758 -0.016633892
0002a0 b3 16 b0 3c 80 1b 02 bc 0f 41 18 be 0d 50 d5 bd
       0.021495199 -0.007941127 -0.14868568 -0.10415659
0002b0 1d 37 e3 bd 3d 8a 46 be ba 50 b7 3d 73 69 62 3d
       -0.110944964 -0.19388671 0.08950944 0.055276345
0002c0 d8 e4 1d 3e 13 d1 0c be d3 23 4a 3d 1b 3d 2f be
       0.15419328 -0.1375163 0.04935057 -0.17113154
0002d0 c0 3a 80 3d 80 36 88 3d 9a c2 cd bd 27 ea a3 3c
       0.06261206 0.0665102 -0.10046883 0.020009113
0002e0 bb 2c 02 3e 9a 7d 36 3e 40 a2 c2 bc 67 47 29 3e
       0.12712376 0.1782135 -0.023759007 0.16531144
0002f0 a0 c2 d1 3d ba a5 40 3e e0 60 45 3e ca 60 42 3e
       0.102422 0.1881322 0.19275236 0.18982235
000300 a7 03 fa 3c a3 60 3d be 0b c8 3e be 2d 4e d2 3d
       0.03051932 -0.18493895 -0.18630998 0.10268817
000310 9a ea c1 bc 77 4d e5 bd 5f 55 1e be 28 4e 28 3e
       -0.023671437 -0.11196416 -0.15462254 0.16436064
000320 7a 75 3e 3e 3d d7 09 3e 9d f6 ab 3d 17 4d 81 3d
       0.18599501 0.13461013 0.08396647 0.06313532
000330 ef bc 3c be 33 76 6c bc bd 19 fe bd d7 11 9b 3d
       -0.18431447 -0.014432478 -0.12407253 0.07571762
000340 9d 34 cd bd 3a e8 c1 bd 0b 1a 30 be 5a 9a 91 3d
       -0.10019801 -0.09468122 -0.17197435 0.07109518
000350 27 04 2f 3e c7 68 3a bd d5 ba 23 3e 87 be a9 bd
       0.17091428 -0.04551008 0.1598924 -0.08288293
000360 27 8b db 3c 00 3c fb bb 47 fc 20 3e d3 d4 19 bd
       0.026799751 -0.0076670647 0.15721236 -0.03755648
000370 b3 f6 bb bd e3 d6 9d bd 60 6b 1c 3d 3d a9 3a be
       -0.091779135 -0.07707002 0.03818834 -0.18228622
000380 80 2a d3 bc b0 26 ac bd 53 a5 4d 3d 5a fe 3f be
       -0.025777102 -0.084058166 0.050206494 -0.18749371
000390 87 7f 2d 3d 80 a9 52 bd 40 4b a6 3c e7 99 10 bc
       0.042357948 -0.05143118 0.020299554 -0.008825756
0003a0 0a ee bc 3d bf e0 12 be 07 8f 1b be 4a 32 8e 3d
       0.0922509 -0.14343546 -0.1519128 0.069431856
0003b0 ca 32 c3 bd 7a 1b 4c 3e d3 98 09 3e 33 75 25 3e
       -0.095311716 0.19932356 0.13437204 0.16157989
0003c0 1a e1 09 be 40 e6 0b be 7f 05 23 3e 0d b5 ed bc
       -0.13464776 -0.13662052 0.15920065 -0.029016996
0003d0 5d a0 cf bd f0 32 3a be d2 a8 0a be b3 b4 0a bd
       -0.10138009 -0.18183494 -0.13540962 -0.033863734
0003e0 33 d3 1d bb 3a f0 6f bd 9d 7b ef 3d 1d 9c 37 3e
       -0.0024082183 -0.058578707 0.11693499 0.17930646
0003f0 d3 06 7c 3d c0 2e bf 3d 90 22 15 be 5a ef 32 bd
       0.061529946 0.09335089 -0.14563966 -0.043685295

encoder.conv1.bias f4 [40]
000000 00 30 a6 39 52 1c 18 3e 9a 22 18 3c e8 e1 29 be
       0.0003169775 0.14854553 0.009285593 -0.16590083
000010 7f 7a 4a be 02 99 05 be f3 d7 f7 bc 15 8e 06 3e
       -0.19773291 -0.13046649 -0.03025434 0.13140137
000020 e3 71 aa 3d 9a 29 34 bd 78 6f 3b be 47 5d 43 bd
       0.083225034 -0.043984987 -0.1830424 -0.047696378
000030 e5 f2 3b 3e aa 00 08 be 83 db 34 be 03 5c a6 3d
       0.18354376 -0.13281503 -0.17661862 0.081230186
000040 5a 08 f3 3c aa 29 ab 3d 2b 5d 43 3e 1d 03 a5 3d
       0.029667068 0.08357556 0.1907851 0.080572344
000050 cd d1 e7 3b 38 f3 2c 3e 1a 6d dc 3d a7 ad d1 3d
       0.0070745707 0.16889656 0.10762997 0.102382
000060 8a 41 86 3d a0 c4 d1 3d b3 5e ec 3c 17 68 20 be
       0.06555469 0.10242581 0.02885375 -0.15664707
000070 57 e9 23 be 40 22 00 3d 07 21 c0 bd 97 70 2e 3e
       -0.16006981 0.031282663 -0.093812995 0.17035137
000080 da a4 4a 3e 63 a4 b6 3d 70 21 ae bd e7 29 81 3c
       0.19789448 0.08918073 -0.085024714 0.01576705
000090 67 0d 2c 3c 97 1f 91 bd b3 a5 35 bd bd 3b d8 bd
       0.010501242 -0.070861034 -0.044347476 -0.10558269

encoder.conv2.weight f4 [40, 40, 61, 1]
000000 e6 15 5a 3c 00 a2 8f 39 7b d4 5b bc 9c 1a 32 3c
       0.013310885 0.00027395785 -0.0134173585 0.010870602
000010 3f 18 69 bc 0b e6 05 3c fa cb 3f bb 41 8d 6f bc
       -0.014226972 0.008172522 -0.0029265867 -0.01462108
000020 30 18 7d bc 1e fb 5e bb 88 15 68 bc 23 8f 98 3c
       -0.015447661 -0.003402419 -0.01416529 0.01862294
000030 eb 01 22 3c 50 b1 e4 bb 34 26 84 3c c4 b4 5c 3c
       0.009888153 -0.006979145 0.016131498 0.013470832
000040 01 1d 98 bc b2 2f f2 3b a6 6c a1 bb 0a ff 81 bc
       -0.018568518 0.0073909396 -0.004926282 -0.015868682
000050 e1 92 91 39 7a a4 29 bc df 7f 6f 3c 55 1a 8d 3c
       0.00027765988 -0.010354156 0.014617889 0.01722447
000060 98 12 9d 3c ff 4c 11 bc 28 57 1c 3c 87 29 04 bc
       0.019173905 -0.008868455 0.009542264 -0.0080665415
000070 70 f6 58 3c eb 97 76 3c 06 77 c2 bb 81 98 58 bb
       0.013242349 0.0150508685 -0.005934599 -0.0033049884
000080 75 e3 49 3c f2 1c 6c bc fb 9f a4 bb 13 6b 65 bc
       0.012322296 -0.014411198 -0.005023954 -0.014002579
000090 3d 92 96 3c 4e ad 69 3c f6 50 6b bb 4f 9a a2 3c
       0.018380279 0.01426251 -0.003590641 0.01984897
0000a0 63 7e 74 3c 35 fa 8a 3c 2b 37 68 bc 64 46 35 3c
       0.014922711 0.016965011 -0.014173309 0.011064146
0000b0 2a 43 9f 3b 67 11 3b 3c 43 25 77 3c 24 6d ad 3b
       0.0048603015 0.011417723 0.0150845675 0.0052925516
0000c0 f6 00 d1 bb 90 ee 8b 3b 27 5a 88 bc a9 5d 06 bc
       -0.0063782884 0.004270382 -0.01664455 -0.008201041
0000d0 ef 54 8e bc 2a d5 66 3c 01 2a a4 bc ea 1b a5 bb
       -0.017374484 0.014088908 -0.02003956 -0.005038728
0000e0 af b7 8b bc 1b 85 7e 3c 26 b7 16 bc 65 16 90 bc
       -0.01705536 0.0155346645 -0.009198939 -0.017588804
0000f0 95 3c 39 3c cf 96 97 3b c2 b2 7f bc fe b9 7d bc
       0.011305948 0.004626132 -0.015606584 -0.0154862385
000100 d6 76 9c 3b d5 3a 1a 3b a3 23 91 3c 41 0a 53 3b
       0.0047749085 0.0023533602 0.017717188 0.0032202157
000110 55 5e 96 bc fc 9e da bb 86 82 15 3c e1 f8 92 bc
       -0.018355528 -0.0066717844 0.0091253575 -0.01794094
000120 41 f8 a3 3b 43 1d e4 bb a6 b9 b1 3b c6 bc a0 3c
       0.0050039594 -0.006961496 0.0054237423 0.019621264
000130 1d f6 55 3c 0d c4 4b bb e5 11 43 3b 23 8b 94 bb
       0.013059166 -0.0031092197 0.0029765305 -0.004533188
000140 e2 d2 95 bc f9 2e 99 3c 55 f1 44 3c 83 c1 3f 3c
       -0.018289033 0.018699156 0.012020429 0.011703852
000150 e5 9e 6c 3c 8f 25 84 3b ce 06 00 3b bb fb 99 bc
       0.01444218 0.0040327976 0.0019535306 -0.018796792
000160 b3 37 fe 3a a3 60 1a bc a6 6a a0 3c 6e e4 28 bc
       0.0019395262 -0.009422454 0.019582104 -0.010308368
000170 84 6d 6b 3c 89 c8 21 bc ea f5 84 3b 04 8b 8d 3c
       0.014369372 -0.009874471 0.0040576356 0.017278202
000180 96 ae 26 3c 2f 8b 2b bc 40 d8 61 3c c3 58 a2 3c
       0.0101734605 -0.010470196 0.013784468 0.019817716
000190 6d eb 2d bc 2a b1 6b 3c 75 6c 6f 3a f6 9e a2 3c
       -0.010615212 0.014385501 0.0009133288 0.01985119
0001a0 ab b6 38 bc 49 15 71 3c 1c 45 6b 3c 3f c1 78 3c
       -0.01127402 0.014714547 0.014359739 0.015182792
0001b0 9c 51 4a 3c 52 b7 ef bb 08 dc a0 bc 61 ef 95 3c
       0.012348559 -0.0073155547 -0.01963617 0.018302621
0001c0 db 26 52 bc aa 79 8f 3c cd 21 9b 3b cb 6a 58 3c
       -0.012826647 0.017514069 0.004734254 0.013209055
0001d0 4e d3 0e 3c be 00 90 bc 38 15 80 bc 3a e5 c5 b9
       0.008717371 -0.017578479 -0.015635118 -0.00037745555
0001e0 c4 38 34 3c 0f da 30 bc 51 8f 9b 3c f8 ca 73 bc
       0.010999862 -0.010794177 0.018989237 -0.0148799345
0001f0 29 22 53 3c 73 33 c0 3b be 7d cb bb 26 44 7e bc
       0.012886562 0.005865508 -0.006210058 -0.015519178
000200 e9 a6 f9 bb 85 6c 88 3c 1d 1b 4e bc 93 f2 8f ba
       -0.007618774 0.016653309 -0.0125797065 -0.0010982327
000210 ff 65 12 bc 49 54 86 39 d0 e6 3f 3c f5 1e 67 3c
       -0.008935451 0.0002562127 0.011712745 0.014106502
000220 28 9d 42 3c 04 42 72 bb 52 be b8 bb 29 c3 a5 3c
       0.011878289 -0.0036965618 -0.0056379223 0.020234661
000230 19 65 d2 3b c8 d6 05 3c b9 78 3c bc c0 aa 35 3c
       0.006420743 0.008168884 -0.011503392 0.011088073
000240 73 b4 84 3c 66 f3 18 bc 5e f7 8f bc 34 47 3a 3b
       0.016199326 -0.009335374 -0.017574009 0.0028423788
000250 05 31 88 bc 64 66 7c 3c 27 47 bd 3b 9a f9 03 bc
       -0.016624937 0.015405271 0.0057763043 -0.008055115
000260 b1 f2 58 3c da 8e 83 3c ae 78 0e 3c b7 fc 4e bc
       0.013241456 0.016059328 0.0086957645 -0.012633494
000270 99 fc 93 3c d5 d2 de bb a9 73 fa 3b a7 3b c6 3b
       0.018064784 -0.0068000355 0.0076431823 0.0060495916
000280 77 45 12 bc 18 29 84 bc 51 e3 29 bc 3f 7d 58 bc
       -0.0089276945 -0.016132876 -0.010369138 -0.013213455
000290 ec d9 9b 3b 56 a0 9b 3c bb 79 45 bb 2d 6e 22 3b
       0.004756203 0.018997353 -0.0030132371 0.0024784908
0002a0 09 63 28 3c dd 85 a2 3c 88 54 82 3c 1b 3e 5e bc
       0.010277518 0.019839222 0.015909448 -0.013564612
0002b0 c3 ef 84 3b 3b f1 7e 3c e7 28 9e 3c 6c 6a 8c bc
       0.004056902 0.0155604435 0.019306613 -0.01714059
0002c0 d7 12 a4 3c b7 55 8f bc 4d e9 00 3b 48 1c 8e 3c
       0.020028515 -0.017496927 0.0019670308 0.01734747
0002d0 dc 9e 86 3c d1 7d 51 bc 61 79 81 3c 8a fe 8a 3c
       0.016433172 -0.012786345 0.015804948 0.016967077
0002e0 52 51 13 bc e7 c7 c2 3b cd de 66 bc 81 de d2 3b
       -0.008991556 0.0059442404 -0.014091206 0.006435216
0002f0 55 c0 06 bc 79 c0 a4 bb 64 ea 08 3c 89 2a 57 bc
       -0.0082245665 -0.0050278273 0.008356664 -0.0131327
000300 9f 79 9a bc cf 49 ff 3b 98 db 3a bc 67 26 08 3c
       -0.018856822 0.007790781 -0.011404894 0.008309937
000310 04 f5 a5 bb da 19 87 bb 01 f1 fb 3b a3 a3 72 bc
       -0.0050646085 -0.004122955 0.007688642 -0.014809522
000320 48 d3 39 3a 61 47 42 3c 1c 39 57 bc 1c 03 1a 3c
       0.00070886733 0.011857838 -0.0131361745 0.009400155
000330 a5 cc e8 3b 32 cb 8d 3a 79 ca 51 bb dc e6 8c 3b
       0.0071044737 0.0010818003 -0.0032011552 0.0042999815
000340 85 8c ab 3a 99 08 58 bc 03 7e a0 3c 5c 3c 58 bc
       0.0013088143 -0.013185644 0.019591337 -0.013197985
000350 d8 db 87 bc 1c f2 4e bc f0 af 01 3b 84 85 3c bc
       -0.016584322 -0.012630966 0.0019788705 -0.011506442
000360 a0 d2 a4 bc 5e 69 b0 3b 74 42 98 bc b0 c3 84 3b
       -0.020119965 0.0053836545 -0.018586375 0.004051648
000370 56 a0 27 bc cc 32 2b bb 0f 15 01 3c 86 e7 95 bb
       -0.010231098 -0.0026122807 0.007878556 -0.004574719
000380 62 10 bc bb 4c 85 42 3c c8 0a 99 3c c3 1d ad 3a
       -0.0057392577 0.011872601 0.018681899 0.0013207722
000390 d6 f7 8f b9 30 13 80 3c 28 e8 fb bb c0 ba cc ba
       -0.00027459738 0.01563415 -0.0076875873 -0.0015619621
0003a0 fd 3d 34 bb 20 1d aa b8 60 94 67 3a a5 32 5b bc
       -0.0027502768 -8.111657e-05 0.000883406 -0.013378774
0003b0 06 00 86 3c 2f 8b 49 3c 06 df 0a bc cf e9 6e 3c
       0.016357433 0.01230125 -0.0084760245 0.0145821115
0003c0 44 a3 8a bc 5d 2d 00 3c d2 69 69 bc a9 2c 1a 3b
       -0.016923554 0.007823315 -0.014246421 0.0023525155
0003d0 16 b8 dc bb f4 15 33 bc 67 3a 8d 3c c7 1f 4e 3c
       -0.006735812 -0.010930527 0.017239762 0.0125808185
0003e0 43 89 3c b9 99 7c a3 bc b6 56 2c bc 53 11 04 3c
       -0.00017980211 -0.019956874 -0.01051872 0.008060771
0003f0 ab 07 db ba 4a b2 89 3c 7b 5b 11 bc d2 50 f8 bb
       -0.0016710659 0.016808648 -0.008871908 -0.007577994

encoder.conv2.bias f4 [40]
000000 63 90 7b bc 20 22 00 bc b3 ac 81 bb 72 d6 a3 bc
       -0.015354249 -0.007820636 -0.003957355 -0.019999716
000010 59 7c 60 3c aa fb 4e 3c 27 8d 50 3c 93 f7 99 3c
       0.013701522 0.012633244 0.012728966 0.01879481
000020 ac b8 f4 3a 87 e1 7c 3b 4d c1 05 3c 1c 5f 65 bc
       0.0018670759 0.0038586573 0.008163762 -0.013999727
000030 9a a8 03 3c 35 bb 61 3c 82 43 9d 3b 23 8b 9b 3c
       0.008035803 0.013777544 0.0047993073 0.018987244
000040 6d 9f 66 bc ec 9b 37 3c 66 dc a5 3b c8 7b 9a bc
       -0.014076096 0.011206608 0.005061674 -0.018857852
000050 05 38 f6 3a 63 6d 8b 3c fb 5c 15 3c 48 d2 9a bb
       0.0018785006 0.017019933 0.009116407 -0.0047247745
000060 f9 ec 89 3c 07 85 09 3c e1 3b b0 39 81 4a 9c 3b
       0.01683663 0.008393533 0.0003361395 0.0047696237
000070 c7 1f db bb 7f 28 ed 3b 7b 9c 0a 3b 24 87 99 3c
       -0.0066871378 0.0072374935 0.0021150399 0.018741198
000080 7d 7e 18 3c 1c 0c 95 bc 60 e5 3e bc 2f 15 86 bc
       0.009307501 -0.01819425 -0.011651367 -0.016367523
000090 f6 0d 0a 3b 15 b8 f2 39 cb 94 fb 3b 62 33 d6 bb
       0.002106545 0.0004629499 0.0076776496 -0.006536887

encoder.batch1.weight f4 [40]
000000 00 00 80 3f 00 00 80 3f 00 00 80 3f 00 00 80 3f
       1.0 1.0 1.0 1.0
000010 00 00 80 3f 00 00 80 3f 00 00 80 3f 00 00 80 3f
       1.0 1.0 1.0 1.0
000020 00 00 80 3f 00 00 80 3f 00 00 80 3f 00 00 80 3f
       1.0 1.0 1.0 1.0
000030 00 00 80 3f 00 00 80 3f 00 00 80 3f 00 00 80 3f
       1.0 1.0 1.0 1.0
000040 00 00 80 3f 00 00 80 3f 00 00 80 3f 00 00 80 3f
       1.0 1.0 1.0 1.0
000050 00 00 80 3f 00 00 80 3f 00 00 80 3f 00 00 80 3f
       1.0 1.0 1.0 1.0
000060 00 00 80 3f 00 00 80 3f 00 00 80 3f 00 00 80 3f
       1.0 1.0 1.0 1.0
000070 00 00 80 3f 00 00 80 3f 00 00 80 3f 00 00 80 3f
       1.0 1.0 1.0 1.0
000080 00 00 80 3f 00 00 80 3f 00 00 80 3f 00 00 80 3f
       1.0 1.0 1.0 1.0
000090 00 00 80 3f 00 00 80 3f 00 00 80 3f 00 00 80 3f
       1.0 1.0 1.0 1.0

encoder.batch1.bias f4 [40]
000000 00 00 00 00 00 00 00 00 00 00 00 00 00 00 00 00
       0.0 0.0 0.0 0.0
000010 00 00 00 00 00 00 00 00 00 00 00 00 00 00 00 00
       0.0 0.0 0.0 0.0
000020 00 00 00 00 00 00 00 00 00 00 00 00 00 00 00 00
       0.0 0.0 0.0 0.0
000030 00 00 00 00 00 00 00 00 00 00 00 00 00 00 00 00
       0.0 0.0 0.0 0.0
000040 00 00 00 00 00 00 00 00 00 00 00 00 00 00 00 00
       0.0 0.0 0.0 0.0
000050 00 00 00 00 00 00 00 00 00 00 00 00 00 00 00 00
       0.0 0.0 0.0 0.0
000060 00 00 00 00 00 00 00 00 00 00 00 00 00 00 00 00
       0.0 0.0 0.0 0.0
000070 00 00 00 00 00 00 00 00 00 00 00 00 00 00 00 00
       0.0 0.0 0.0 0.0
000080 00 00 00 00 00 00 00 00 00 00 00 00 00 00 00 00
       0.0 0.0 0.0 0.0
000090 00 00 00 00 00 00 00 00 00 00 00 00 00 00 00 00
       0.0 0.0 0.0 0.0

Dense.weight f4 [4, 1120]
000000 66 64 96 3c f3 ae c7 bc 52 02 38 bc d2 ab 60 bc
       0.01835842 -0.024375414 -0.011231022 -0.01371284
000010 62 c0 f3 3c 6e 2e 30 3b 5f d9 86 bc 92 91 dd 3c
       0.029754821 0.0026883143 -0.016461072 0.027046952
000020 04 45 af 3c c0 b6 a7 bc 3c 73 b1 3c 02 db 9f bc
       0.021395214 -0.020472884 0.021661393 -0.01951361
000030 95 11 c9 bc 8c 70 9e bc 5b a0 e6 bc 97 77 af bb
       -0.024544517 -0.019340776 -0.028152635 -0.0053548324
000040 29 d9 ed 3b 2a 5f c6 3c ee ac 9a bc 3e 0e a1 bc
       0.0072585535 0.0242153 -0.018881287 -0.019660112
000050 17 d9 7e bc 8c d2 b6 3c dc cb 27 bc 54 e6 4d bc
       -0.015554688 0.022317193 -0.010241475 -0.012567122
000060 4c 63 b5 bc a4 74 a8 3c c9 af da bc 5c 84 86 bc
       -0.022142075 0.020563431 -0.026695149 -0.016420536
000070 24 70 d3 3b d0 b9 6d 3c b8 34 e8 3c 5f 59 53 ba
       0.006452577 0.014509633 0.02834545 -0.00080623286
000080 51 6f 35 3c 4b 17 5e bb a4 59 e0 3c 31 00 e9 3c
       0.011073903 -0.0033888395 0.027386494 0.028442474
000090 7e e1 a0 3c 00 1c 1e 3c 8b ca c6 bc 78 15 b1 3b
       0.019638773 0.00965023 -0.024266502 0.0054041706
0000a0 7b 21 3b 3b 65 23 4f bb ae bb de 3c dc 28 bf bc
       0.0028553891 -0.003160679 0.027189102 -0.023334913
0000b0 0d df d3 3c 37 ff 15 3c f4 3d 81 bc 13 a6 d6 3c
       0.025863195 0.009155086 -0.015776612 0.026202237
0000c0 d9 b6 39 bc e5 98 09 3c 58 00 0f bc 3a ef 95 bc
       -0.011335098 0.008398269 -0.008728109 -0.018302549
0000d0 1e 58 82 bc 6f 09 65 3c be bf 4a bc dc a0 2c bc
       -0.015911158 0.0139793 -0.012374816 -0.010536399
0000e0 52 54 44 bb 24 39 43 3c 19 ff 33 3c ff 32 42 3b
       -0.0029957485 0.011915479 0.010986113 0.0029632447
0000f0 9f 57 d5 3c c0 85 90 3c e3 fe 8e bc 4e b8 a0 3c
       0.026042758 0.017641902 -0.017455524 0.019619133
000100 6e 9e a8 3b 8c 19 1e 3c 5b b9 96 3b c2 50 07 3c
       0.0051458394 0.009649646 0.004599733 0.008259
000110 8a da a3 bc de a8 61 3c c4 0d f4 bc 2c 3a 74 3c
       -0.020001668 0.013773171 -0.02979172 0.014906447
000120 c2 4d 3e ba f9 94 97 3c c9 50 86 bb d0 73 b5 3c
       -0.00072595116 0.018503653 -0.004098986 0.02214995
000130 51 f2 63 3c 64 a8 84 3b b7 5f ed 3c bd 9d d3 3b
       0.013912753 0.004048394 0.028976304 0.006458013
000140 15 90 bb bc 89 a5 9a bc b1 d5 2d bc 36 ee d2 bc
       -0.022895852 -0.018877761 -0.01061003 -0.025748353
000150 11 0e 48 3c aa 24 8a bb ba dc 53 3b 3b 68 a3 bc
       0.012210385 -0.0042157965 0.0032327608 -0.019947162
000160 ad 5f 6c bc 97 f9 c2 3c bb 21 c4 bb 66 66 b0 bb
       -0.014427108 0.023800654 -0.0059854663 -0.0053833006
000170 98 5d 02 3b a6 ff dd bc 72 75 b9 bc d0 55 08 3b
       0.0019892212 -0.027099442 -0.02263901 0.0020803101
000180 e1 85 a4 bc 24 e8 b3 bc a6 37 b8 bc b2 9c ea bc
       -0.02008337 -0.02196128 -0.022487473 -0.028639171
000190 7b 45 d9 3c 1b 92 95 3a b1 73 03 bc e1 c9 f8 3b
       0.026522389 0.0011411341 -0.008023188 0.007592425
0001a0 a6 04 b9 3c 5d 26 a4 3c 1e 42 ea bb 59 8c d3 3c
       0.022585224 0.020037824 -0.007148995 0.025823759
0001b0 aa 55 d3 3a 67 02 f0 bc 96 5d f4 bc 21 8b 06 bc
       0.0016123552 -0.02929802 -0.029829782 -0.008211882
0001c0 76 54 f2 3b f5 f2 75 bc c5 e5 68 bc 27 e1 54 3c
       0.0073953224 -0.015011539 -0.014214938 0.012993134
0001d0 08 15 b5 bb 5c d3 c5 bb 06 d7 0b 3c 91 5a a4 bc
       -0.0055261888 -0.006037159 0.008535152 -0.020062717
0001e0 8d 06 a3 bc 6c 0e d6 bb 3b bc 70 bc 6e 5e 48 bc
       -0.019900585 -0.006532481 -0.014693315 -0.012229545
0001f0 4a fc e7 3c 68 32 bf 3b 38 ef 43 3c 04 ff 45 3a
       0.028318543 0.0058348663 0.01195889 0.0007552954
000200 b9 1f 5f 3c 8e 26 2a 3b 3a a1 f1 3c 5f 89 c3 3a
       0.013618403 0.0025962922 0.029495824 0.0014918259
000210 42 bc cd bc 67 de a5 3c bf 86 b8 3c b6 1e 26 bb
       -0.025114182 0.020247651 0.02252519 -0.0025347895
000220 be 30 e0 bc fd bc 43 bc e3 57 aa 3b ae 40 15 3c
       -0.027366992 -0.011946914 0.005198465 0.009109659
000230 d5 8d 98 bc 2e cc 55 3c 63 47 50 3b 10 57 3d ba
       -0.018622318 0.0130491685 0.003178083 -0.0007222751
000240 b3 4f 94 bc 7b be 80 bc 3a 31 f3 3c 64 44 12 bc
       -0.01810441 -0.015715828 0.029686559 -0.008927438
000250 55 25 ce 3c e9 dc 72 3c 9d 92 d8 bc 59 d0 d1 3b
       0.025164286 0.014823177 -0.026437098 0.006403011
000260 fc 0c 59 ba 59 f1 63 3c 5d 65 91 bc b3 75 f4 bc
       -0.0008279828 0.013912522 -0.01774853 -0.02984128
000270 8e 7f 88 3c 5c 48 eb bc 5e ba 4a 3c ed 29 f3 3b
       0.016662385 -0.028721027 0.012373535 0.0074207694
000280 99 4e 93 3b ab d3 08 3c 0a f9 a2 3b 1e d8 4c 3c
       0.0044954536 0.008351247 0.0049735354 0.012502698
000290 4a 1b aa 3c 67 ab 25 bc 50 1a 9c 3c d4 d7 a8 bc
       0.020764966 -0.010111666 0.019055516 -0.020610727
0002a0 f9 ee d9 3b 48 8c 39 bc e5 e6 91 bc f6 f1 0b 3b
       0.006650802 -0.01132495 -0.017810294 0.0021353937
0002b0 2b 32 d3 3a 68 82 e3 3c 57 03 c1 3c 9a ab 3a 3c
       0.0016112974 0.027772143 0.023561163 0.011393452
0002c0 bd d0 be 3c 04 c0 e9 3c f4 2c e0 bc 9a 53 d2 3c
       0.023292894 0.028533943 -0.027365185 0.02567463
0002d0 c7 29 da 3c 19 15 a1 3c fb e6 bc bc c1 13 e4 3c
       0.02663125 0.01966338 -0.023059359 0.02784145
0002e0 6f 79 82 bc 9a 14 31 bc 2b 76 a4 bc b8 30 4f 3b
       -0.015927045 -0.010808134 -0.020075878 0.0031614732
0002f0 52 2f 1f bc ff dd b5 3c 95 2b cf 3b f2 72 a3 3c
       -0.009715872 0.022200583 0.006322334 0.019952271
000300 bd e5 41 bc 9f dd 21 3a a4 69 2c bc 54 7c 8d 3b
       -0.011834559 0.0006174687 -0.010523234 0.0043177996
000310 0a a2 c9 bb de 3a da bc f1 f4 dc bb 58 d9 34 3c
       -0.0061533498 -0.026639398 -0.0067430665 0.011038147
000320 ab 83 db bc 9a 21 de 3c db 64 91 3a 49 c5 f1 bc
       -0.026796183 0.027115632 0.0011092679 -0.029513018
000330 3a c5 bb b9 2c 9d 19 3a 02 2a 88 3c e7 5f 5e bb
       -0.00035814365 0.0005859907 0.016621593 -0.0033931674
000340 68 c3 aa bc f0 d7 86 3c 51 d0 a1 bc 7b d7 98 3b
       -0.02084513 0.016460389 -0.019752653 0.004664359
000350 35 92 ed bc 08 b1 ab 3c 24 2c b4 bb 7c 2f ac bc
       -0.029000381 0.020958439 -0.005498426 -0.021018736
000360 03 62 b2 3b a6 79 f3 3b d3 8a ec 3b cc be e3 bc
       0.005443813 0.007430273 0.0072186976 -0.02780094
000370 89 08 d6 bb de f5 8b 3c bd 37 ee bc 1a d4 6b 3c
       -0.006531779 0.017085012 -0.029079312 0.014393831
000380 22 af b2 bc c3 09 24 3b 91 29 ee 39 47 be df bc
       -0.021812025 0.0025030233 0.00045425867 -0.027312411
000390 37 1c be 3b 1f c9 3a bc 14 5b 28 bc f9 66 1a 3c
       0.0058017033 -0.01140049 -0.010275621 0.009423965
0003a0 d8 d8 ef 3c de 46 a2 bc 71 ac 9e 3b ba 11 c0 3c
       0.029278204 -0.019809183 0.004842334 0.023445953
0003b0 9d 83 bf bc 01 73 d6 bb 5f 4a ec bc 02 20 e4 bb
       -0.023378188 -0.0065444713 -0.028844057 -0.0069618234
0003c0 0e af 04 bc e5 48 e1 bc 55 70 04 bb 23 de 90 3c
       -0.008098377 -0.02750058 -0.0020208557 0.017684048
0003d0 49 47 89 bc 2b 4d f0 3c 70 24 c4 bc 5d d8 ce 3b
       -0.016757624 0.029333672 -0.023943156 0.0063124136
0003e0 97 bf 1c 3c d9 30 cd bc 30 97 b1 3c 2b 29 91 bc
       0.009567163 -0.025047706 0.021678537 -0.017719826
0003f0 36 1b db bb a8 19 84 3c a0 84 27 3b 98 3b 2b bc
       -0.0066865934 0.016125515 0.0025561228 -0.01045122

Dense.bias f4 [4]
000000 78 c4 d2 3c 73 c8 b7 bc c5 ff 51 3b 68 cb 66 3c
       0.02572845 -0.022434449 0.003204332 0.014086582
